…
          "base_uri": "https://localhost:8080/"
        },
        "outputId": "d4435bc6-84f2-44a1-8681-aac07efb2d45"
      },
      "source": [
        "model0.summary()\n"
      ],
      "execution_count": 29,
      "outputs": [
        {
          "output_type": "stream",
          "text": [
            "Model: \"sequential\"\n",
            "_________________________________________________________________\n",
            "Layer (type)                 Output Shape              Param #   \n",
            "=================================================================\n",
            "conv1d (Conv1D)              (None, 91, 32)            128       \n",
            "_________________________________________________________________\n",
            "max_pooling1d (MaxPooling1D) (None, 22, 32)            0         \n",
            "_________________________________________________________________\n",
            "conv1d_1 (Conv1D)            (None, 22, 32)            3104      \n",
            "_________________________________________________________________\n",
            "max_pooling1d_1 (MaxPooling1 (None, 5, 32)             0         \n",
            "_________________________________________________________________\n",
            "conv1d_2 (Conv1D)            (None, 5, 32)             3104      \n",
            "_________________________________________________________________\n",
            "max_pooling1d_2 (MaxPooling1 (None, 1, 32)             0         \n",
            "_________________________________________________________________\n",
            "flatten (Flatten)            (None, 32)                0         \n",
            "_________________________________________________________________\n",
            "dense (Dense)                (None, 256)               8448      \n",
            "_________________________________________________________________\n",
            "dropout (Dropout)            (None, 256)               0         \n",
            "_________________________________________________________________\n",
            "dense_1 (Dense)              (None, 2)                 514       \n",
            "=================================================================\n",
            "Total params: 15,298\n",
            "Trainable params: 15,298\n",
            "Non-trainable params: 0\n",
            "_________________________________________________________________\n"
          ],
          "name": "stdout"
        }
      ]
    },
    {
      "cell_type": "code",
      "metadata": {
…
        },
        "id": "dVf0iah5tN2X",
        "outputId": "0cedf94d-ba96-4795-d112-b58d1da9f6c9"
      },
      "source": [
        "model1.summary()\n"
      ],
      "execution_count": 33,
      "outputs": [
        {
          "output_type": "stream",
          "text": [
            "Model: \"sequential_1\"\n",
            "_________________________________________________________________\n",
            "Layer (type)                 Output Shape              Param #   \n",
            "=================================================================\n",
            "conv1d_3 (Conv1D)            (None, 91, 32)            128       \n",
            "_________________________________________________________________\n",
            "max_pooling1d_3 (MaxPooling1 (None, 22, 32)            0         \n",
            "_________________________________________________________________\n",
            "conv1d_4 (Conv1D)            (None, 22, 32)            3104      \n",
            "_________________________________________________________________\n",
            "max_pooling1d_4 (MaxPooling1 (None, 5, 32)             0         \n",
            "_________________________________________________________________\n",
            "conv1d_5 (Conv1D)            (None, 5, 32)             3104      \n",
            "_________________________________________________________________\n",
            "max_pooling1d_5 (MaxPooling1 (None, 1, 32)             0         \n",
            "_________________________________________________________________\n",
            "dropout_1 (Dropout)          (None, 1, 32)             0         \n",
            "_________________________________________________________________\n",
            "flatten_1 (Flatten)          (None, 32)                0         \n",
            "_________________________________________________________________\n",
            "dense_2 (Dense)              (None, 256)               8448      \n",
            "_________________________________________________________________\n",
            "dropout_2 (Dropout)          (None, 256)               0         \n",
            "_________________________________________________________________\n",
            "dense_3 (Dense)              (None, 2)                 514       \n",
            "=================================================================\n",
            "Total params: 15,298\n",
            "Trainable params: 15,298\n",
            "Non-trainable params: 0\n",
            "_________________________________________________________________\n"
          ],
          "name": "stdout"
        }
      ]
    },
    {
      "cell_type": "code",
      "metadata": {
…
